…
  Sentinel 1 data shape : (24119, 32, 32, 8)
  Sentinel 2 data shape : (24119, 32, 32, 10)
  Label data shape      : (24119, 17)
Round1 Test data shapes:
  Sentinel 1 data shape : (4838, 32, 32, 8)
  Sentinel 2 data shape : (4838, 32, 32, 10)

=================================================================
                          Model Summary
=================================================================
_________________________________________________________________
Layer (type)                 Output Shape              Param #   
=================================================================
conv2d_1 (Conv2D)            (None, 32, 32, 256)       41728     
_________________________________________________________________
activation_1 (Activation)    (None, 32, 32, 256)       0         
_________________________________________________________________
batch_normalization_1 (Batch (None, 32, 32, 256)       1024      
_________________________________________________________________
max_pooling2d_1 (MaxPooling2 (None, 10, 10, 256)       0         
_________________________________________________________________
dropout_1 (Dropout)          (None, 10, 10, 256)       0         
_________________________________________________________________
conv2d_2 (Conv2D)            (None, 10, 10, 512)       1180160   
_________________________________________________________________
activation_2 (Activation)    (None, 10, 10, 512)       0         
_________________________________________________________________
batch_normalization_2 (Batch (None, 10, 10, 512)       2048      
_________________________________________________________________
conv2d_3 (Conv2D)            (None, 10, 10, 512)       2359808   
_________________________________________________________________
activation_3 (Activation)    (None, 10, 10, 512)       0         
_________________________________________________________________
batch_normalization_3 (Batch (None, 10, 10, 512)       2048      
_________________________________________________________________
max_pooling2d_2 (MaxPooling2 (None, 5, 5, 512)         0         
_________________________________________________________________
dropout_2 (Dropout)          (None, 5, 5, 512)         0         
_________________________________________________________________
conv2d_4 (Conv2D)            (None, 5, 5, 1024)        4719616   
_________________________________________________________________
activation_4 (Activation)    (None, 5, 5, 1024)        0         
_________________________________________________________________
batch_normalization_4 (Batch (None, 5, 5, 1024)        4096      
_________________________________________________________________
conv2d_5 (Conv2D)            (None, 5, 5, 1024)        9438208   
_________________________________________________________________
activation_5 (Activation)    (None, 5, 5, 1024)        0         
_________________________________________________________________
batch_normalization_5 (Batch (None, 5, 5, 1024)        4096      
_________________________________________________________________
max_pooling2d_3 (MaxPooling2 (None, 2, 2, 1024)        0         
_________________________________________________________________
dropout_3 (Dropout)          (None, 2, 2, 1024)        0         
_________________________________________________________________
flatten_1 (Flatten)          (None, 4096)              0         
_________________________________________________________________
dense_1 (Dense)              (None, 2048)              8390656   
_________________________________________________________________
activation_6 (Activation)    (None, 2048)              0         
_________________________________________________________________
batch_normalization_6 (Batch (None, 2048)              8192      
_________________________________________________________________
dropout_4 (Dropout)          (None, 2048)              0         
_________________________________________________________________
dense_2 (Dense)              (None, 17)                34833     
_________________________________________________________________
activation_7 (Activation)    (None, 17)                0         
=================================================================
Total params: 26,186,513
Trainable params: 26,175,761
Non-trainable params: 10,752
_________________________________________________________________


=================================================================
                       Training Parameters
=================================================================
…
